…
Validation Loss: 0.6712, Validation Accuracy: 74.01%
Epoch [5/30], Train Loss: 0.6938, Train Accuracy: 49.34%
Validation Loss: 0.6834, Validation Accuracy: 74.01%
Mean: 0.11399136483669281, Std: 0.3434072434902191
Train dataset size: 4684
Validation dataset size: 585
Test dataset size: 587
Batch images shape: torch.Size([32, 1, 256, 256])
Batch labels shape: torch.Size([32])
----------------------------------------------------------------
        Layer (type)               Output Shape         Param #
================================================================
            Conv2d-1         [-1, 16, 256, 256]             160
              ReLU-2         [-1, 16, 256, 256]               0
         AvgPool2d-3         [-1, 16, 128, 128]               0
            Conv2d-4         [-1, 32, 128, 128]           4,640
              ReLU-5         [-1, 32, 128, 128]               0
         AvgPool2d-6           [-1, 32, 64, 64]               0
           Flatten-7               [-1, 131072]               0
            Linear-8                    [-1, 2]         262,146
================================================================
Total params: 266,946
Trainable params: 266,946
Non-trainable params: 0
----------------------------------------------------------------
Input size (MB): 0.25
Forward/backward pass size (MB): 28.00
Params size (MB): 1.02
Estimated Total Size (MB): 29.27
----------------------------------------------------------------
